Weights/best_model.pt (torch, 275554 bytes, 16 tensors)

gcn1.bias f4 [64]
0	0x3b84ab5f	0.0040487493
1	0xbbea946e	-0.0071588075
2	0xbbd563ef	-0.006512157
3	0xbbccc398	-0.0062489025
4	0x3b2f917c	0.0026789596
5	0x3c0a5dc0	0.008445203
6	0x3aa6d297	0.0012727556
7	0xbb3e9ee9	-0.0029086417
8	0xbbacf4f7	-0.0052782255
9	0xbaf5970a	-0.001873703
10	0x3aad5296	0.0013223465
11	0x3bbc940b	0.005754953
12	0xbb88e56b	-0.0041777394
13	0x3b80f260	0.0039351434
14	0xbb87101f	-0.004121795
15	0x3a947f27	0.0011329398
16	0x3bb54055	0.0055313506
17	0x3b13602b	0.002248774
18	0x3bcefe18	0.0063169114
19	0x3b7af52b	0.0038293104
20	0x3bdfa776	0.006825383
21	0xbb3e9c2d	-0.0029084787
22	0xbb908970	-0.004410915
23	0x3bbcb8c8	0.0057593323
24	0x3b5d1738	0.0033735763
25	0x3bc007ee	0.0058603203
26	0x3bec88d0	0.0072184578
27	0xbbc2fd84	-0.0059506316
28	0x3bc498db	0.005999667
29	0x3bf357b8	0.0074262284
30	0x3b157438	0.0022804867
31	0x3b5dd169	0.0033846742
32	0xbb865d9b	-0.004100514
33	0xbbaf4640	-0.0053489506
34	0xbbeaf485	-0.0071702623
35	0x3b9ae52f	0.004727028
36	0xbba867b0	-0.0051393136
37	0x3c0286fd	0.007966754
38	0xbb93fcc0	-0.004516214
39	0xbbcc40f9	-0.0062333313
40	0xbbb88def	-0.005632154
41	0xbbcefdc3	-0.006316872
42	0x3b958cc0	0.004563898
43	0xbc0140af	-0.007888957
44	0xbb356ba0	-0.0027682558
45	0x3b8963d1	0.0041928072
46	0x3b81dad5	0.0039628544
47	0xba1310e9	-0.0005610125
48	0x3bc7d72b	0.006098648
49	0x37ffe926	3.0506937e-05
50	0xbb29b1a5	-0.0025893238
51	0xbbeb04ba	-0.0071721943
52	0xbbe468bc	-0.006970493
53	0xbbc2d811	-0.0059461673
54	0xba0ca3bc	-0.00053649745
55	0xbba17a91	-0.004927941
56	0xbafe559a	-0.0019404173
57	0x3bf56e0f	0.0074899266
58	0xbbb482b5	-0.0055087456
59	0xbbac959d	-0.0052668587
60	0xbbf852cb	-0.007578229
61	0x3af76acb	0.0018876431
62	0x3b959136	0.0045644296
63	0xbb4f2083	-0.0031605072

gcn1.lin.weight f4 [64, 128]
0	0xbd8c3306	-0.068456694
1	0xbde198a9	-0.11015446
2	0x3df9013b	0.12158438
3	0xbe0c9c07	-0.13731395
4	0x3e11c04e	0.14233515
5	0x3d7b4ad5	0.061350662
6	0x3db5bacf	0.088735215
7	0xbc860c9b	-0.016363433
8	0xbe07a497	-0.1324638
9	0x3dfd7219	0.12375278
10	0x3d2f8f01	0.04286099
11	0x3dc7d0c4	0.09756616
12	0x3b8816cc	0.004153108
13	0x3b822524	0.0039717127
14	0x3da86f20	0.082243204
15	0xbda331b1	-0.07968462
16	0xbdd8331f	-0.105566256
17	0xbd91677c	-0.07099816
18	0x3e253b3f	0.16135882
19	0x3dfbd594	0.12296596
20	0x3de22d7e	0.11043833
21	0x3e0e03e4	0.13868672
22	0x3e200f0c	0.1563074
23	0x3cc57aec	0.024106465
24	0xbe1bca76	-0.15213951
25	0xbe2757ca	-0.16342083
26	0x3e2472fc	0.16059488
27	0xbd1977e4	-0.037467852
28	0xbb8bd20d	-0.0042669834
29	0xbe12d171	-0.14337708
30	0xbdf500cb	-0.11963042
31	0xbdb5ec68	-0.088829815
32	0x3dea7350	0.11447775
33	0x3d4878f3	0.04894347
34	0xbe0ae1a5	-0.13562639
35	0x3a8fd962	0.0010974819
36	0x3d83764e	0.06419049
37	0x3e1987a0	0.14993143
38	0x3c8e8df2	0.01740167
39	0x3d94f38c	0.072730154
40	0x3a244aab	0.000626723
41	0xbe2dc77d	-0.1697063
42	0x3dd2590a	0.10270889
43	0x3e1c837f	0.15284537
44	0xbd6b9844	-0.05751826
45	0x3d3c9766	0.046042822
46	0x3dbfc91b	0.0936453
47	0x3dc88391	0.09790719
48	0xbbc374d7	-0.005964856
49	0xbd926e27	-0.07149916
50	0xbcd16902	-0.025562767
51	0x3d60ec42	0.054912813
52	0xbcffd7f1	-0.031230899
53	0xbe150fc2	-0.14556792
54	0xbe2f1495	-0.17097695
55	0x3d9ac2f3	0.07556715
56	0x3e18bc7b	0.1491565
57	0xbe2b74ea	-0.16743818
58	0xbd8888b9	-0.06666703
59	0xbe0e6261	-0.13904716
60	0x3ccf6cd2	0.025320444
61	0x3d87e5ec	0.06635651
62	0xbd3d0884	-0.0461507
63	0xbd1fac48	-0.03898266
64	0xbd4af498	-0.04954967
65	0xbdee688e	-0.11641036
66	0x3d410cc5	0.04713132
67	0x3e1fd60f	0.15609
68	0x3dd22626	0.102611825
69	0x3df73445	0.120705165
70	0xbddd71f8	-0.108127534
71	0x3dc6c793	0.097060345
72	0xbe030463	-0.12794642
73	0xbe294f0a	-0.16534057
74	0x3ddfcd7e	0.109278664
75	0xbe0169be	-0.12637994
76	0xbd681548	-0.05666092
77	0x3e1b4212	0.15161923
78	0xbd2ac7fa	-0.04169462
79	0x3e131c5b	0.14366286
80	0x3d510a56	0.051035248
81	0x3e26de77	0.16295801
82	0xbd83264d	-0.0640379
83	0x3dadb9b8	0.08482689
84	0x3d7b6794	0.061378077
85	0xbd71c3ff	-0.059024807
86	0xbdbb5c1c	-0.09148428
87	0xbdecf611	-0.11570371
88	0x3db02761	0.08601261
89	0xbde08de4	-0.109645635
90	0x3d1ce073	0.03829999
91	0xbe0017da	-0.12509099
92	0x3d36fa37	0.044672217
93	0x3e0ba754	0.1363805
94	0xbe36a4d8	-0.1783632
95	0x3deea1b7	0.116519384
96	0xbd68f6a9	-0.05687586
97	0xbd86c9eb	-0.065814815
98	0x3dc01e07	0.09380727
99	0x3d2361d5	0.03988822
100	0xbddb09af	-0.106952064
101	0x3d61079e	0.054938905
102	0xbdabb035	-0.08383218
103	0x3d9eb74c	0.07749805
104	0x3b4ba5b7	0.0031074116
105	0xbe29a574	-0.16567022
106	0xbd9ee3e8	-0.077583134
107	0x3dd57b4e	0.10423909
108	0x3b3c2f6b	0.0028714787
109	0xbc76c2a1	-0.015061052
110	0xbd9ccf85	-0.07656769
111	0xbdaef0b2	-0.08542003
112	0xbdcfddd1	-0.1014973
113	0xbd019608	-0.03163722
114	0x3dd5f157	0.104464225
115	0x3d00e3a1	0.031467084
116	0x3da47afe	0.080312714
117	0xbe0a1863	-0.13485865
118	0xbd1c12a3	-0.03810371
119	0xbe304074	-0.17212087
120	0x3e012b3b	0.12614147
121	0x3e03e91d	0.12881894
122	0xbd17e180	-0.037080288
123	0x3e08d5c9	0.13362803
124	0xbdc922f4	-0.0982112
125	0x3bf71ab2	0.007541024
126	0xbc22c476	-0.009934535
127	0xbde72f14	-0.11288276
128	0x3e098f04	0.13433462
129	0x3e12d0a6	0.14337406
130	0x3dae57ef	0.08512866
131	0xbb17f32a	-0.0023185709
132	0xbd7404ae	-0.059574775
133	0x3e0cdff1	0.13757302
134	0x3c8f3911	0.017483266
135	0xbd128855	-0.035774548
136	0x3dfdbf7d	0.12390039
137	0x3cdc3522	0.026880804
138	0x3e2ddf45	0.16979702
139	0xbe01ffbc	-0.12695211
140	0xbcb60f92	-0.022224221
141	0xbe207885	-0.15670975
142	0xbc550803	-0.013002398
143	0xbe38e228	-0.18055022
144	0x3d0ac350	0.03387767
145	0x3d61073a	0.054938532
146	0x3e35248d	0.17689724
147	0x3d3e22b9	0.046419833
148	0x3e0dcb4a	0.1384708
149	0xbde263a1	-0.11054159
150	0x3dcb20d3	0.0991837
151	0xbe370568	-0.17873156
152	0x3db0e804	0.086380035
153	0x3e032751	0.12807967
154	0xbe0f4094	-0.13989478
155	0xbe0f58e5	-0.13998754
156	0x3dcc5e7b	0.09978958
157	0x3e2be52e	0.16786644
158	0x3de957bf	0.11393689
159	0xbe368c6a	-0.17827001
160	0xbe1b6ac8	-0.15177453
161	0xbca20442	-0.01977742
162	0x3e26a2f7	0.16273104
163	0x3cdbb8a1	0.026821436
164	0x3aefbf3a	0.0018291243
165	0x3d58286a	0.052772917
166	0x3e20b871	0.15695359
167	0xbe2abc9b	-0.1667351
168	0x3db45732	0.08805694
169	0x3e3a6450	0.18202329
170	0x3e028257	0.12745033
171	0x3dbdb919	0.0926382
172	0x3df4152f	0.11918103
173	0x3d93d4fd	0.07218359
174	0xbdb7f5e4	-0.08982447
175	0xbe1d1aa8	-0.153422
176	0xbe32cb78	-0.1746043
177	0x3b31a040	0.0027103573
178	0x3e01f0dd	0.12689538
179	0xbe1095a8	-0.1411959
180	0xbe059045	-0.13043316
181	0x3d1545ad	0.0364434
182	0xbe125bca	-0.14292827
183	0x3d34da6d	0.04415362
184	0xbdd4ec95	-0.10396687
185	0x3deec8cc	0.11659393
186	0xbd153b00	-0.03643322
187	0xbd34fbb9	-0.044185374
188	0x3d8311d0	0.06399882
189	0x3e03abe0	0.12858534
190	0x3d9e0394	0.07715526
191	0x3d7a9601	0.06117821
192	0xbe27ad5a	-0.16374722
193	0x3e234217	0.1594318
194	0xbe0b25c9	-0.13588633
195	0xbd94c42c	-0.07263979
196	0xbdc91327	-0.09818106
197	0xbe28dc57	-0.16490303
198	0xbd650bb2	-0.055919357
199	0xbda628b6	-0.08113234
200	0x3ce7857f	0.028261898
201	0xbc5084da	-0.012726987
202	0x3d28312a	0.04106251
203	0x3e21d373	0.15803318
204	0x3d33f7e5	0.043937583
205	0xbdcf632f	-0.1012634
206	0x3e17e398	0.14832914
207	0x3cd76f46	0.026298176
208	0xbc381a6c	-0.011236768
209	0x3bf39ec5	0.0074346983
210	0xbc8cd3a3	-0.01719076
211	0xbe15e674	-0.14638692
212	0xbe3a02ef	-0.18165182
213	0xbcadc7a2	-0.021213356
214	0x3e1f56c0	0.15560436
215	0x3df6451e	0.12024902
216	0x3e07f081	0.13275339
217	0x3e20b31f	0.1569333
218	0xbe211934	-0.1573227
219	0x3dcbe2d5	0.09955374
220	0xbdc06800	-0.093948364
221	0x3e287ff0	0.16455054
222	0x3d537982	0.05162955
223	0x3d4a4bb5	0.049388606
224	0xbdcb8fa0	-0.09939504
225	0xbce9ac53	-0.028524553
226	0xbb8d6b10	-0.0043157414
227	0xbe1e4a4b	-0.15458028
228	0xbcafdfc5	-0.021469006
229	0xbda4236e	-0.0801457
230	0x3e1c17bf	0.15243433
231	0x3e2baa16	0.16764101
232	0x3cd91ea8	0.026503876
233	0xbdce242e	-0.100654945
234	0xbdf9176b	-0.1216267
235	0x3e0827e1	0.13296463
236	0x3e055e59	0.13024272
237	0x3bc58e5a	0.0060289325
238	0x3d8bd014	0.06826797
239	0x3e04b094	0.12957984
240	0x3e2c20b3	0.16809349
241	0x3d60e758	0.054908127
242	0x3d088f7c	0.033339962
243	0x3d337e42	0.04382158
244	0xbd819265	-0.06326751
245	0xbdb73f02	-0.08947565
246	0x3e29ed8c	0.16594523
247	0x3a7ba072	0.00095987984
248	0xbe154cb9	-0.14580049
249	0x3d9088a7	0.07057314
250	0x3d9fd725	0.078047074
251	0x3dd58b5e	0.10426973
252	0xbdd7a437	-0.10529368
253	0x3e1ba84d	0.1520092
254	0xbe193a73	-0.14963703
255	0x3e0f21a3	0.13977675

attn.att_src f4 [1, 4, 64]
0	0xbda333f7	-0.07968896
1	0xbe8c382e	-0.27386612
2	0x3d19b361	0.037524585
3	0x3e86f51c	0.2635888
4	0x3e974740	0.29546547
5	0xbe830353	-0.25588474
6	0x3c168218	0.00918629
7	0x3e345709	0.17611326
8	0xbe7add17	-0.24498402
9	0xbe1b719a	-0.15180054
10	0xbe3ba7c5	-0.18325718
11	0x3e3d6b8f	0.18498062
12	0x3e09ec0f	0.13468955
13	0xb80ef3c3	-3.408246e-05
14	0xbe29551b	-0.16536371
15	0xbcd4bd4e	-0.025969174
16	0xbe840b45	-0.25789848
17	0xbe88ad13	-0.26694545
18	0x3e13135d	0.14362855
19	0x3e047d06	0.12938318
20	0xbe0340e3	-0.12817721
21	0xbe977154	-0.2957865
22	0x3d1d7f87	0.038451698
23	0x3e4a74f5	0.19771178
24	0x3e168259	0.14698161
25	0xbe7b6022	-0.2454839
26	0xbe812f81	-0.25231555
27	0xbe6171c9	-0.22016062
28	0x3db634d9	0.08896799
29	0xbdb7bddc	-0.0897176
30	0x3de61f59	0.11236448
31	0xbe768bf3	-0.24076824
32	0x3e45e014	0.1932376
33	0xbe3d4020	-0.18481493
34	0xbe8d0708	-0.27544427
35	0xbd71a915	-0.05899914
36	0xbd8c2cc7	-0.06844478
37	0xbc12664b	-0.008935521
38	0xbd960b50	-0.073263764
39	0xbe0cdadd	-0.13755365
40	0x3de9eb24	0.11421803
41	0x3e56ce05	0.20977028
42	0xbdacdc50	-0.08440459
43	0xbe295a82	-0.16538432
44	0xbdc54ab1	-0.09633387
45	0xbe72f1c5	-0.2372504
46	0xbe9420d6	-0.28931302
47	0xbe110454	-0.14161807
48	0x3e8c9bfa	0.2746275
49	0xbe29267b	-0.16518585
50	0x3e49a2a9	0.19690956
51	0xbdcbe4ba	-0.099557355
52	0xbbe0fa21	-0.006865755
53	0xbde3ed7d	-0.11129282
54	0xbe878d2a	-0.26474887
55	0x3e420c75	0.18950064
56	0x3e3efe3c	0.1865167
57	0xbe830314	-0.25588286
58	0xbe37dab3	-0.17954521
59	0xbe3c6f23	-0.1840177
60	0x3dd37871	0.10325707
61	0x3cd9bd67	0.026579572
62	0xbc83a92b	-0.016071877
63	0x3e8b44b0	0.27200842
64	0xbe40d788	-0.18832219
65	0x3e0c2f67	0.13689958
66	0xbe16bf6d	-0.1472146
67	0xbd14773e	-0.03624653
68	0x3d83e3c8	0.0643993
69	0x3d6e50bb	0.05818246
70	0x3e57b2a2	0.21064237
71	0xbd08d99b	-0.03341065
72	0x3e004b4c	0.12528723
73	0xbe38ac83	-0.18034558
74	0x3d9bf6b3	0.076154135
75	0xbcd255c7	-0.025675667
76	0xbe76819a	-0.24072877
77	0x3d157b29	0.036494408
78	0x3e66aeba	0.2252759
79	0x3e754deb	0.23955505
80	0x3dc79c85	0.097466506
81	0xbd2d9e13	-0.04238708
82	0x3e874450	0.26419306
83	0xbe17bffa	-0.14819327
84	0x3e25eac5	0.16202839
85	0x3e5e02d4	0.21680766
86	0xbe1580e7	-0.14599954
87	0x3e681fca	0.22668377
88	0x3d796aab	0.060892742
89	0x3dc160b6	0.09442274
90	0xbe83e78c	-0.25762594
91	0xbe0c9b1d	-0.13731046
92	0xbe854a92	-0.26033455
93	0x3ddf78bb	0.109116994
94	0x3db60218	0.08887118
95	0x3da0a426	0.07843809
96	0x3d44cab0	0.04804486
97	0x3e600528	0.21876967
98	0x3e7402d0	0.23829198
99	0x3dfc581e	0.123214945
100	0x3e79623e	0.24353883
101	0xbe4d1565	-0.20027693
102	0x3db34c74	0.08754817
103	0xbdd82a1a	-0.10554905
104	0x3e872551	0.26395658
105	0xbe10a10e	-0.14123937
106	0x3e9454b5	0.28970876
107	0x3c292ef9	0.010326141
108	0x3e9934ce	0.299231
109	0x3e2133f0	0.15742469
110	0xbd8e3eee	-0.06945597
111	0xbdb77b78	-0.08959097
112	0xbe553e3e	-0.20824525
113	0x3e3f6c37	0.18693624
114	0x3e28ad27	0.16472302
115	0x3e5fed82	0.21867946
116	0xbe5e115a	-0.21686307
117	0xbc92c868	-0.017917827
118	0xbe90de38	-0.2829454
119	0xba86d2f2	-0.0010286255
120	0xbdec0f60	-0.1152637
121	0xbe8e886d	-0.2783846
122	0xbda31138	-0.079622686
123	0xbe247858	-0.16061532
124	0xbdbbf240	-0.09177065
125	0x3d8de9d9	0.069293685
126	0x3e7bdb58	0.24595392
127	0xbc49b7ea	-0.012311915
128	0x3cd263c8	0.025682345
129	0xbe403350	-0.18769574
130	0x3dfafd9f	0.12255406
131	0xbe4a5f52	-0.19762924
132	0x3dcd14b4	0.100137144
133	0x3e19198d	0.14951153
134	0xbdb45033	-0.08804359
135	0x3cd86b71	0.02641842
136	0xbdea3b61	-0.11437107
137	0xbe75a9b4	-0.23990518
138	0xbd954257	-0.07288044
139	0xbe254cc8	-0.16142571
140	0xbdb09eec	-0.08624062
141	0x3de5d5f4	0.11222449
142	0xbe6b79b1	-0.2299564
143	0x3dfeaa57	0.124348335
144	0x3e980f65	0.29699245
145	0x3e052680	0.13002968
146	0xbc1fb31a	-0.009747291
147	0x3d7d3f16	0.06182774
148	0xbe14e271	-0.14539506
149	0xbe96c2a3	-0.2944537
150	0x3e22d81b	0.1590275
151	0xbdcaf311	-0.099096425
152	0x3e57e08d	0.21081753
153	0xbe0ab30f	-0.13544868
154	0xbbf52a50	-0.0074818507
155	0xbe0f9a90	-0.14023805
156	0x3e721567	0.23640977
157	0xbd26b24e	-0.04069739
158	0x3d7bb23a	0.061449267
159	0xbd9ea917	-0.07747095
160	0x3e82132f	0.2540526
161	0x3e451581	0.19246484
162	0x3e4a9097	0.19781719
163	0x3c135931	0.008993433
164	0xbe439538	-0.19099891
165	0xbe67d54a	-0.22639957
166	0xbe8100d3	-0.2519594
167	0xbe585250	-0.2112515
168	0x3d06c20f	0.032899912
169	0xbacf9f41	-0.0015840308
170	0xbd4915ff	-0.049093243
171	0x3e017934	0.12643892
172	0xbc0f01ee	-0.008728487
173	0x3df99f63	0.12188604
174	0xbe46f226	-0.1942831
175	0x3ca97a37	0.02068816
176	0x3db8f81c	0.09031698
177	0x3e1835a8	0.14864218
178	0x3d88d8e6	0.06681995
179	0xbe44c1b0	-0.19214511
180	0x3e54e65c	0.20791
181	0xbe86fb46	-0.2636358
182	0xbbb41a82	-0.005496324
183	0xbd7697c4	-0.06020333
184	0xbe534619	-0.20632209
185	0xbe1eb8c2	-0.15500167
186	0x3d878842	0.06617786
187	0x3db8a100	0.09015083
188	0x3df4f4e6	0.11960773
189	0xbc9bb668	-0.019007877
190	0x3e7ee69a	0.24892655
191	0x3e9141a5	0.28370395
192	0x3e73cf73	0.23809604
193	0x3dc2700f	0.0949403
194	0x3dbbb542	0.091654316
195	0x3c46bfa3	0.012130651
196	0x3de62d2d	0.11239085
197	0x3e218879	0.15774716
198	0xbe58b63e	-0.2116327
199	0x3e9081e3	0.28224096
200	0x3d7abc77	0.06121489
201	0x3e477365	0.19477613
202	0x3e7bd13c	0.24591535
203	0x3e47b444	0.1950236
204	0xbe23c421	-0.15992786
205	0xbe827087	-0.25476477
206	0xbe329d29	-0.17442764
207	0x3e933ffa	0.28759748
208	0xbe2da2f6	-0.16956696
209	0x3c436d80	0.011927962
210	0xbe949605	-0.29020706
211	0x3e42ec60	0.19035482
212	0x3db50246	0.08838324
213	0x3dbabff7	0.09118646
214	0xbe402adb	-0.18766348
215	0x3dd31218	0.103061855
216	0x3e8fd4aa	0.28091937
217	0xbdc10bb0	-0.09426057
218	0x3e50167e	0.2032108
219	0xbe5b63fa	-0.21424857
220	0x3e246bd7	0.16056763
221	0x3e5f2e0c	0.21794909
222	0xbe4620a1	-0.19348384
223	0xbddad810	-0.10685742
224	0x3e10d747	0.14144622
225	0xbdf15fb9	-0.11785836
226	0xbe7278d3	-0.23678903
227	0xbe87ef6f	-0.2654986
228	0x3e64951e	0.22322509
229	0x3dab495e	0.08363603
230	0x3dc6eda0	0.09713292
231	0xbe0af983	-0.13571744
232	0xbe8f40f3	-0.2797924
233	0xbd820724	-0.06349018
234	0x3e481d9f	0.1954255
235	0xbe671be6	-0.22569236
236	0xbc482b8c	-0.012217414
237	0xbc7355c1	-0.014851988
238	0xbe1599c4	-0.14609438
239	0xbe595a78	-0.21225917
240	0xbe231d9c	-0.15929264
241	0x3d95f86d	0.07322774
242	0x3e7c0961	0.24612953
243	0x3d1d7f5c	0.038451537
244	0x3e69f4c3	0.22847275
245	0xbe1ee490	-0.15516877
246	0xbdbc2a1f	-0.091877215
247	0xbe14a2be	-0.14515206
248	0x3e2596dc	0.1617083
249	0x3da95c3e	0.08269547
250	0x3e8234bf	0.25430867
251	0xbe82c479	-0.25540522
252	0xbd802be9	-0.06258375
253	0xbe584b22	-0.21122411
254	0x3bf44d65	0.007455515
255	0xbda662ae	-0.081242904

attn.att_dst f4 [1, 4, 64]
0	0xbbcdc68a	-0.006279771
1	0xbda266ca	-0.07929762
2	0xbcb22b1a	-0.021749068
3	0x3d6d6626	0.057958744
4	0x3e51b00a	0.2047731
5	0xbca93f14	-0.02065996
6	0x3d41fc57	0.04735979
7	0x3e1912ff	0.14948653
8	0x3e58c57a	0.21169081
9	0xbe2e70e8	-0.17035258
10	0x3e08545b	0.13313429
11	0x3dd5bc9a	0.104363635
12	0x3e403e66	0.18773803
13	0x3d8e97a1	0.06962515
14	0x3dbb3b2b	0.09142145
15	0x3d4f2529	0.050572548
16	0x3e84f096	0.25964803
17	0x3e50e727	0.20400678
18	0x3e80a8a7	0.25128672
19	0x3e3aad84	0.18230253
20	0x3e2e31c1	0.17011167
21	0xbd859978	-0.065234125
22	0x3d72c47c	0.059269413
23	0xbe334323	-0.1750608
24	0x3db5d4ed	0.08878503
25	0x3d7cda67	0.061731722
26	0x3e7675de	0.240684
27	0xbe8ee1c5	-0.27906623
28	0x3d944410	0.072395444
29	0x3cb81d6d	0.022474969
30	0x3db609f7	0.088886194
31	0x3e7871e0	0.2426219
32	0x3e85f522	0.26163584
33	0xbd33fcc4	-0.043942228
34	0x3ce3fb7d	0.02782988
35	0x3d4b7d78	0.049680203
36	0x3e051540	0.12996387
37	0xbdf0defa	-0.117612794
38	0xbe1aaf7d	-0.15106006
39	0x3e684e69	0.22686161
40	0x3cfedb63	0.031110471
41	0xbe6e3d94	-0.23265678
42	0x3e907f74	0.2822224
43	0xbdd5b0d3	-0.10434117
44	0xbe69d655	-0.22835667
45	0x3e416982	0.18887904
46	0xbe3e3e7f	-0.18578528
47	0xbe98234f	-0.29714438
48	0x3e1c3d6c	0.15257806
49	0xbe86fd25	-0.2636501
50	0xbe998a7f	-0.29988477
51	0xbc495786	-0.012288934
52	0x3c093fc4	0.008377019
53	0x3da328d7	0.07966774
54	0xbe60ddd0	-0.21959615
55	0x3e633da5	0.22191484
56	0x3d568d62	0.052380927
57	0xbe98044e	-0.29690784
58	0x3d11d46d	0.035602976
59	0x3c20e3da	0.009819949
60	0xbdf64eb1	-0.12026728
61	0xbdaf3ebf	-0.0855689
62	0x3e5e292e	0.21695396
63	0xbd8a950d	-0.067667104
64	0x3d0497cd	0.03237133
65	0xbc07e407	-0.008294112
66	0xbde16e48	-0.110073626
67	0xbe750af4	-0.2392996
68	0xbe2be5d7	-0.16786896
69	0xbc2bce6e	-0.010486228
70	0x3e0848f9	0.13309087
71	0xbe8e9e7b	-0.27855286
72	0x3e392965	0.18082197
73	0x3e83f4f9	0.25772837
74	0x3d952396	0.07282178
75	0xbe81ba2a	-0.25337344
76	0x3e2ab4c3	0.16670518
77	0x3ce589c6	0.028019797
78	0x3d36edb3	0.04466028
79	0x3da0fb53	0.07860436
80	0x3e2a02fa	0.16602698
81	0xbe82fb14	-0.25582182
82	0x3dfe375f	0.12412905
83	0xbd36819d	-0.044557203
84	0xbdfb6bd5	-0.12276427
85	0xbce5d8af	-0.028057424
86	0x3e275c13	0.16343717
87	0x3e672c81	0.2257557
88	0xbe36b6b2	-0.1784313
89	0xbd50bca0	-0.050961137
90	0xbd5630d3	-0.052292656
91	0x3dc3ac83	0.095543884
92	0xbe339dcf	-0.17540668
93	0xbda9a33d	-0.08283088
94	0x3e0f7a06	0.14011392
95	0x3e4779df	0.19480084
96	0x3db6c9dd	0.08925221
97	0xbe924ada	-0.28572732
98	0xbe6ac159	-0.22925319
99	0xbd091186	-0.033463977
100	0x3e6d20c0	0.23157024
101	0xbdd2f978	-0.10301489
102	0x3de1cd35	0.11025468
103	0xbe61664d	-0.22011681
104	0x3d96b977	0.07359593
105	0xbe8fb1f7	-0.28065464
106	0xbdf3d9bc	-0.11906764
107	0x3e8a9873	0.27069435
108	0x3e7d6b97	0.24748074
109	0xbe9477e5	-0.28997722
110	0xbe92e46b	-0.28689894
111	0xbe4dd2c3	-0.2009993
112	0x3e4f710f	0.20257972
113	0x3e532d53	0.20622759
114	0xbd8152f2	-0.06314649
115	0xbe6d929c	-0.23200458
116	0x3e58105f	0.21099995
117	0x3e6bce9e	0.23028037
118	0x3e92ebae	0.28695434
119	0xbd510936	-0.051034175
120	0x3e69f809	0.22848524
121	0x3e895050	0.26819086
122	0x3e852d7c	0.26011264
123	0x3db347f2	0.08753957
124	0xbdbbc794	-0.09168926
125	0xbdf1677e	-0.11787318
126	0x3e63326d	0.22187205
127	0x3ccc490c	0.024937175
128	0xbe7f040a	-0.24903885
129	0x3e6b147c	0.22957033
130	0xbdea39a2	-0.11436774
131	0x3e8727b8	0.2639749
132	0xbe959c02	-0.29220587
133	0xbd2b5944	-0.041833177
134	0x3da50fe8	0.080596745
135	0xbe2cb05e	-0.16864154
136	0x3e075b62	0.13218454
137	0xbc8c6978	-0.017140135
138	0xbe88cc21	-0.26718238
139	0xbe271aec	-0.16318864
140	0x3e1f5ec7	0.15563498
141	0x3e08af99	0.13348235
142	0xbcbb679e	-0.022876557
143	0xbcc8e093	-0.024521148
144	0x3e421d57	0.18956505
145	0x3c64fc5a	0.013976181
146	0xbe81dfe3	-0.25366125
147	0xbdd57e5f	-0.10424494
148	0xbe8cd079	-0.27502802
149	0xbe8ae462	-0.27127367
150	0x3e9a7abb	0.3017176
151	0xbe8fb28e	-0.28065914
152	0x3e097561	0.13423683
153	0xbe12e3e3	-0.14344744
154	0x3d257bcd	0.04040127
155	0xbd995db1	-0.07488573
156	0x3e7d5815	0.24740632
157	0xbe58c331	-0.2116821
158	0x3e496d3f	0.1967058
159	0xbe201fc4	-0.15637118
160	0x3cb12f5f	0.021629034
161	0xbd88f4a3	-0.06687286
162	0x3dc53abd	0.09630344
163	0x3ca6b321	0.020349087
164	0xbd622008	-0.05520633
165	0x3e4f46d6	0.20241866
166	0x3decc1b3	0.11560383
167	0x3deec4c6	0.11658625
168	0xbe15926f	-0.14606641
169	0x3e978371	0.2959247
170	0xbdc2c883	-0.09510901
171	0xbe741be1	-0.2383876
172	0x3bf2e5c4	0.007412644
173	0xbe86010d	-0.26172677
174	0xbdc480ea	-0.09594901
175	0x3da67976	0.081286356
176	0xbe441170	-0.19147277
177	0xbdf643d4	-0.12024656
178	0x3e103828	0.14083922
179	0x3e97dcb5	0.29660574
180	0x3e1bd811	0.15219142
181	0x3d98afe9	0.07455427
182	0xbe9647ec	-0.29351747
183	0xbe7571b9	-0.23969163
184	0xbe7a10c9	-0.24420466
185	0xbe98fb55	-0.2987925
186	0xbdf613d3	-0.120155
187	0x3c3d500a	0.011554727
188	0x3ddaf572	0.10691346
189	0xbe512a3a	-0.20426264
190	0xbe530c89	-0.2061025
191	0x3df43520	0.11924195
192	0x3cbafba3	0.022825068
193	0x3c83ba79	0.016080128
194	0xbd6f5f8d	-0.058440734
195	0x3e85807c	0.26074588
196	0xbd5a2e5e	-0.053266875
197	0xbe40087b	-0.18753235
198	0x3e927e25	0.28611866
199	0x3dd49056	0.103790924
200	0xbe04b451	-0.1295941
201	0xbe658d77	-0.22417246
202	0xbafe96d9	-0.0019423618
203	0x3c91fe64	0.017821498
204	0x3e0c3776	0.13693032
205	0x3e5b953c	0.21443647
206	0xbd89f003	-0.06735232
207	0xbe2b9865	-0.16757353
208	0xbde256ae	-0.11051689
209	0x3c8b9264	0.017037578
210	0x3e667055	0.22503789
211	0x3d37b3c7	0.044849183
212	0x3e45a701	0.19301988
213	0xbd875749	-0.06608445
214	0xbe4fd6cc	-0.20296782
215	0xbdc53345	-0.096289195
216	0x3dc958e6	0.09831409
217	0x3e593cb2	0.2121456
218	0x3e2d86f4	0.16946012
219	0x3d3e3a20	0.04644215
220	0xbe89981a	-0.26873857
221	0x3e1553a4	0.14582688
222	0x3e646eda	0.22307912
223	0xbdbb5f3a	-0.091490224
224	0xbe756316	-0.2396358
225	0xbe85bfd8	-0.26122928
226	0x3e3f2982	0.18668178
227	0x3e8b2834	0.2717911
228	0x3c5bb130	0.013408944
229	0x3d72ecba	0.05930779
230	0x3aa21fbb	0.0012369076
231	0x3e537b66	0.20652542
232	0xbe0e7d6b	-0.1391503
233	0xbe88581f	-0.2662973
234	0x3e8ab8b2	0.27094036
235	0x3e9088aa	0.28229266
236	0x3e8cbe5b	0.2748898
237	0xbc5516bb	-0.013005908
238	0x3e3c7ab3	0.18406181
239	0x3e1138a2	0.1418176
240	0x3e0cc8df	0.13748501
241	0xbe00f497	-0.12593304
242	0x3e1d7d81	0.15379907
243	0x3e6cc0fe	0.23120496
244	0x3d016ee2	0.031599887
245	0x3b19d728	0.002347419
246	0xbdb984b5	-0.09058515
247	0x3d0b9556	0.034077965
248	0x3e11da15	0.14243348
249	0x3e00119c	0.12506717
250	0x3e499ebe	0.19689462
251	0xbe2292f9	-0.15876378
252	0x3e80f653	0.2518793
253	0xbe3bcadc	-0.18339103
254	0xbdcf6f3f	-0.101286404
255	0xbcaf92ac	-0.021432243

attn.bias f4 [256]
0	0xbbd752fd	-0.0065711723
1	0xbbc0e903	-0.005887152
2	0xba10b7a0	-0.00055205263
3	0xbbb84af6	-0.0056241704
4	0x3b987edb	0.004653794
5	0xbb4472d4	-0.002997567
6	0xbbe30aa3	-0.006928758
7	0x3ae6e168	0.0017614784
8	0xbb180a0a	-0.0023199343
9	0x3b428abd	0.0029684745
10	0x3bf2dc0b	0.007411485
11	0x39a58f2f	0.00031577933
12	0x3c0fda80	0.008780122
13	0x3c08af9b	0.008342649
14	0x3bf3724b	0.0074293963
15	0x3b86ef13	0.0041178553
16	0x3bfa72f1	0.0076430966
17	0xbba7d083	-0.005121292
18	0xbab5bea5	-0.0013866021
19	0x3be81734	0.007082844
20	0x3c11e355	0.008904298
21	0xbba840b9	-0.0051346687
22	0x3b8d64fb	0.0043150163
23	0xbbef8f36	-0.0073107732
24	0xbad24a96	-0.0016043957
25	0x3b6fccd4	0.0036590593
26	0x3a8407dc	0.0010073143
27	0xbbb2b613	-0.005453834
28	0xbbe47eff	-0.006973147
29	0x3bb4bcde	0.005515679
30	0x3bf24365	0.007393288
31	0x3badfc5e	0.0053096255
32	0xbbce6815	-0.0062990286
33	0x3b5b60d4	0.0033474462
34	0x3becdee0	0.007228717
35	0xbb872861	-0.0041246866
36	0xbbc699c7	-0.006060812
37	0xbad67f27	-0.0016364799
38	0x3b9ee79d	0.004849388
39	0xbbcd838b	-0.0062717847
40	0x3bbf685d	0.0058412985
41	0x3bc5ddad	0.0060383887
42	0x3c062dc6	0.008189624
43	0xbb0e7a36	-0.0021740324
44	0xbbf7ca85	-0.007561984
45	0xbbb25b26	-0.0054429946
46	0x3baa8881	0.005204261
47	0xbb02cf9b	-0.0019960168
48	0xbbf9461f	-0.007607236
49	0x3b39097a	0.0028234408
50	0x3bcef206	0.0063154725
51	0xbb88d830	-0.004176162
52	0x3b49b3e0	0.003077738
53	0x3bcf851e	0.0063330075
54	0x3bce944b	0.006304299
55	0xbabd1d1a	-0.0014428229
56	0x3a0648af	0.0005122525
57	0xbb87cebd	-0.004144518
58	0x3bcb64cc	0.0062070843
59	0x3beefc7c	0.007293282
60	0x3bd52581	0.006504715
61	0x3bbed0d6	0.005823235
62	0xbb84bc99	-0.004050803
63	0xbb3980c9	-0.0028305522
64	0x3bc1d0c9	0.0059147817
65	0xbb919ee5	-0.0044439905
66	0x3bd0877d	0.0063638077
67	0xbba9f77b	-0.0051869727
68	0x3bb22f03	0.005437733
69	0x3bbdd6f7	0.005793448
70	0x3bde2506	0.006779316
71	0xbbff869d	-0.0077980296
72	0xbba8122c	-0.0051291194
73	0x3b6e159a	0.0036328794
74	0x3b663b7c	0.003513067
75	0xbc073ef4	-0.008254755
76	0xbb2ace33	-0.0026062846
77	0x3ba68a5a	0.0050824108
78	0xbaa146da	-0.0012304441
79	0x3c0a8f42	0.008457007
80	0xbb3586a3	-0.0027698658
81	0x3b879aa0	0.004138306
82	0xbb74d953	-0.003736098
83	0xbb7babb8	-0.0038401913
84	0xbbbfa67b	-0.0058487034
85	0xbbdac060	-0.006675765
86	0x3b0c58c0	0.0021415204
87	0x3bd3ccff	0.0064636464
88	0x3bdd8bf9	0.006761071
89	0x3ba69eb1	0.0050848355
90	0xbbbb5372	-0.0057167346
91	0x3bb0be58	0.0053937845
92	0xbbcb9716	-0.006213079
93	0x3b390cc6	0.0028236373
94	0xbb91a82d	-0.004445097
95	0x3bd11e23	0.0063817664
96	0xbbda90fc	-0.0066701155
97	0xbbeddbd9	-0.007258874
98	0xbb924c16	-0.0044646366
99	0xbc005ab5	-0.007834126
100	0x3b6a06df	0.0035709662
101	0xba779181	-0.0009443984
102	0x3a9e2649	0.0012065853
103	0xbbae5031	-0.005319618
104	0xbb9e84a7	-0.0048375907
105	0x3bc0e296	0.005886386
106	0xbbb0ef72	-0.005399638
107	0x3bf36016	0.007427226
108	0x3bbadb01	0.005702377
109	0x3c088e90	0.008334771
110	0x3bca59a0	0.006175235
111	0x3bcfa8f5	0.00633728
112	0xbc004264	-0.007828329
113	0x3bc98ba7	0.006150681
114	0xbb96735f	-0.00459139
115	0x3ac3eb22	0.0014947394
116	0xbbadada0	-0.0053002387
117	0xbbb8f935	-0.005644942
118	0xbbf8f41b	-0.007597459
119	0x3b94ea52	0.0045445347
120	0xbb1c4416	-0.0023844293
121	0xba8b9b6d	-0.0010651179
122	0xbbfd0bb4	-0.0077223424
123	0xb9ff73a4	-0.0004872355
124	0xbbb9cc16	-0.005670081
125	0x3b1a2b89	0.0023524484
126	0xbbbe7e5d	-0.0058134035
127	0xbb4a76fc	-0.0030893674
128	0x3b94de03	0.0045430674
129	0xbbc9a006	-0.0061531095
130	0x3b82d982	0.003993214
131	0x3ac807b5	0.0015261086
132	0xbbcce6e6	-0.006253111
133	0xbbdd914c	-0.0067617055
134	0xbbd69aa3	-0.006549196
135	0xbbd9489b	-0.0066309697
136	0x39210e13	0.000153594
137	0x3b9b4595	0.0047385194
138	0xbbf88544	-0.007584246
139	0x3bf78479	0.007553634
140	0x3b47daab	0.0030495327
141	0x3becaa38	0.00722244
142	0x3b89c70b	0.004204636
143	0xbb7b60d0	-0.0038357265
144	0xbbd9dcba	-0.006648627
145	0xbb9eb274	-0.0048430506
146	0xba849633	-0.0010115564
147	0x38a40670	7.8213285e-05
148	0xbb525714	-0.003209536
149	0x3c0eef67	0.00872407
150	0x3aae2afe	0.0013287959
151	0x3bc759cf	0.006083704
152	0x3b4481e6	0.0029984652
153	0x3b8cf842	0.0043020556
154	0x3af205e7	0.0018464894
155	0xbb5c3c86	-0.003360541
156	0xbbb6048d	-0.0055547417
157	0x3be88f69	0.007097174
158	0xbbae70bb	-0.005323497
159	0xbb96db66	-0.004603791
160	0x3af4e9cf	0.0018685403
161	0xbb54f703	-0.0032495863
162	0xba8ef619	-0.0010907083
163	0xbbe44b98	-0.0069670193
164	0x3be12d7f	0.0068718786
165	0xbbc736bb	-0.0060795224
166	0x3aa41213	0.0012517594
167	0xbb880e30	-0.004152082
168	0xbb3881e4	-0.0028153593
169	0x3ab72509	0.0013972829
170	0xb9bb70b2	-0.00035751384
171	0xbb1cc5b0	-0.0023921542
172	0x3b87e2f2	0.004146927
173	0xbbc32fec	-0.0059566405
174	0x3b38f58f	0.0028222536
175	0xbbd56798	-0.0065125935
176	0xbb9b04a8	-0.0047307797
177	0x3b89a9f0	0.0042011663
178	0x3c0420a6	0.008064425
179	0x3a8fd470	0.0010973345
180	0x3bfc2488	0.0076947846
181	0xbb890c54	-0.004182378
182	0x3c016d25	0.007899557
183	0x3bb25ad8	0.0054429583
184	0x3ba9a236	0.0051768078
185	0x3aeacd00	0.0017913878
186	0xbbb0f3fa	-0.005400178
187	0xbb68b242	-0.003550664
188	0xbbbe1740	-0.0058011115
189	0xbbe0689c	-0.006848408
190	0xbbb43a7d	-0.0055001364
191	0x3b2dd915	0.0026527096
192	0xbbc3b093	-0.005971977
193	0x3bb82c16	0.00562049
194	0xbb659813	-0.003503327
195	0xbba43754	-0.0050114784
196	0xbb20d3bb	-0.0024540264
197	0xbb976d45	-0.0046211802
198	0x3c157012	0.009120958
199	0xb8c77df2	-9.5125186e-05
200	0x3aec51a5	0.0018029703
201	0xbbab5bc0	-0.0052294433
202	0x3bae364d	0.0053165318
203	0x3c06bb3d	0.008223352
204	0x3b0534f7	0.002032576
205	0x3b9484eb	0.0045324466
206	0x3be156ba	0.0068767937
207	0x3bb1605d	0.0054130987
208	0xbb85a55d	-0.0040785507
209	0xbbb3d591	-0.0054881056
210	0x3bf9b6f2	0.0076206857
211	0x39b1701e	0.00033843605
212	0x3bbcd52d	0.005762717
213	0xbad217cd	-0.0016028822
214	0xbbd0d790	-0.0063733533
215	0xbbd7a1b2	-0.006580555
216	0x3bd8e7d7	0.0066194343
217	0xbba6df09	-0.005092506
218	0x3863e43c	5.4333577e-05
219	0x3bc7ead0	0.00610099
220	0xbbdb543d	-0.0066933916
221	0x3b95c109	0.0045701307
222	0x3b705427	0.0036671252
223	0xbbfb72a1	-0.007673577
224	0x3bcaf489	0.0061937016
225	0x3b47b7b3	0.0030474484
226	0xbb700fb1	-0.0036630447
227	0xbad988d6	-0.0016596566
228	0xbbe3f2e1	-0.0069564437
229	0xbb91674d	-0.0044373632
230	0xbbb3529b	-0.005472494
231	0x3b4ffa3a	0.003173484
232	0xbb27b834	-0.0025591971
233	0x3bb77681	0.0055988436
234	0x3b793277	0.0038024464
235	0xbb857b31	-0.0040735235
236	0x3a9344cc	0.0011235713
237	0x3bf8a411	0.0075879176
238	0xb98ad7ee	-0.0002648229
239	0xbba47585	-0.005018892
240	0xbb9ef5aa	-0.004851063
241	0x3b175fcd	0.0023097873
242	0x3b5d3f35	0.0033759598
243	0xbb8a7dd3	-0.004226425
244	0xbb73af6a	-0.0037183412
245	0x3ba9bfc7	0.0051803323
246	0x3b04a556	0.002024015
247	0xbadfd0bf	-0.0017075761
248	0xbafa7c0e	-0.0019110458
249	0x3bc371c0	0.005964488
250	0xbbbfa677	-0.0058487016
251	0x3bc84002	0.006111146
252	0xbb0ffa7c	-0.0021969369
253	0x3b4744a8	0.0030405913
254	0xbbe1418d	-0.0068742693
255	0x3b2c27c8	0.0026268829

attn.lin.weight f4 [256, 64]
0	0xbbb570c1	-0.005537123
1	0x3d13b906	0.036065124
2	0x3d0e95a9	0.034810696
3	0xbdc84b63	-0.09780004
4	0xbd321aeb	-0.043482702
5	0xbc5a91df	-0.013340442
6	0x3db0b6c0	0.08628607
7	0x3d907596	0.07053678
8	0xbcb1f80f	-0.021724729
9	0xbdd3b165	-0.1033657
10	0x3d96d618	0.07365054
11	0xbe06164e	-0.13094446
12	0x3c93a4c5	0.018022904
13	0x3dab5973	0.083666705
14	0x3d1c793f	0.038201567
15	0xbdfe4a5a	-0.12416525
16	0xbda8d348	-0.08243424
17	0xbd3d926c	-0.046282217
18	0x3db9cc9d	0.0907223
19	0xbd80349f	-0.06260037
20	0xbc596a29	-0.013269939
21	0xbd66b6c2	-0.056326635
22	0x3de93fdf	0.113891356
23	0xbdf39b5b	-0.11894866
24	0xbd054ead	-0.032545734
25	0x3db048f0	0.08607662
26	0x3d7554d8	0.059895366
27	0x3cd868d6	0.026417177
28	0xbe0968b1	-0.13418843
29	0x3c21c95e	0.00987467
30	0xbccef87a	-0.025264967
31	0xbd2f484f	-0.04279357
32	0x3ddc978b	0.10771092
33	0xbc4bbb89	-0.012434849
34	0x3d69a3a6	0.057040833
35	0xbd9f5a00	-0.07780838
36	0xbe00342e	-0.12519905
37	0xbc04dc58	-0.008109175
38	0xbd79c39b	-0.06097756
39	0xbbdb04ae	-0.0066839075
40	0xbde7ed65	-0.11324576
41	0x3d9a2fd6	0.07528655
42	0x3d88be70	0.06676948
43	0xbcfb1b13	-0.030652558
44	0xbdba3383	-0.09091856
45	0xbbef4599	-0.007301998
46	0xbdcab0a3	-0.09896972
47	0x3dcf1168	0.10110742
48	0x3d9cee80	0.07662678
49	0x3cd5df08	0.026107326
50	0x3d85a61c	0.065258235
51	0x3e0014c8	0.12507927
52	0xbcd4f36c	-0.025994979
53	0xbdba4f75	-0.090971865
54	0x3e0690a1	0.13141109
55	0xbcc223d1	-0.02369872
56	0xbc95cfc7	-0.018287553
57	0xbddf57ba	-0.109054044
58	0x3a1c87a8	0.0005971142
59	0xbd5d7473	-0.054066133
60	0x3d6dde85	0.05807354
61	0xbc497f0d	-0.012298358
62	0x3dc185b2	0.094493285
63	0x3d3c4800	0.045967102
64	0xbd94b383	-0.07260802
65	0xbc148fab	-0.009067456
66	0x3d7289e2	0.059213527
67	0x3cea40fc	0.02859544
68	0xbd60007c	-0.054687962
69	0x3ccb13ff	0.024789808
70	0xbd2ae1e9	-0.04171935
71	0xbcb2f397	-0.021844668
72	0xbd47e25a	-0.04879985
73	0x3c3659f7	0.011129848
74	0xbdad2520	-0.08454347
75	0xbe066e05	-0.13127907
76	0xbaea70f4	-0.0017886446
77	0x3d82f9e0	0.06395316
78	0xbdea6c47	-0.114464335
79	0x3defbf21	0.11706377
80	0xbd87c395	-0.06629101
81	0x3dd027d9	0.1016385
82	0x3d715b2e	0.058924846
83	0xbc5a17d7	-0.013311348
84	0xbe0eb25f	-0.1393523
85	0x3de826a9	0.11335499
86	0x3cda6393	0.026658809
87	0x3d9739ab	0.07384046
88	0x3ad74def	0.0016426424
89	0xbdf7d6ba	-0.12101503
90	0xbc3d0c93	-0.011538642
91	0xbde72cdd	-0.11287854
92	0xbd1c16e5	-0.03810777
93	0xbe09adfa	-0.13445273
94	0x3cd5d16e	0.02610084
95	0x3d9e04c7	0.07715755
96	0x3d8d1416	0.06888597
97	0xbe04412a	-0.12915483
98	0xbbd57cb2	-0.006515109
99	0xbd0f4e91	-0.034987036
100	0x3d3da86d	0.0463032
101	0xbdc7428c	-0.0972949
102	0xbdbc5841	-0.091965206
103	0x3c6ef3e1	0.014584512
104	0xbc6079ca	-0.013700912
105	0x3d614b61	0.055003528
106	0xbdbed349	-0.09317643
107	0x3ccfc760	0.025363624
108	0xbd62577b	-0.05525921
109	0xbdb72c8e	-0.08944045
110	0xbcc04418	-0.02346997
111	0x3da8e758	0.0824725
112	0xbe057e80	-0.13036537
113	0x3e0235e7	0.12715875
114	0x3de1badd	0.110219695
115	0xbe054233	-0.13013534
116	0xbcff858b	-0.031191608
117	0xbe0c2e38	-0.13689506
118	0x3d8747e4	0.06605509
119	0x3d300d7d	0.042981613
120	0x3d408773	0.047004174
121	0xbe082131	-0.13293912
122	0x3c20bc58	0.00981053
123	0x3de63153	0.112398766
124	0x3d8a11fb	0.06741711
125	0xbda50121	-0.08056856
126	0xbd8fa700	-0.070142746
127	0xbe0b23e7	-0.13587914
128	0x3d9756df	0.07389616
129	0x3df71ff7	0.12066644
130	0xbda5a2df	-0.08087706
131	0x3e00d2ad	0.12580366
132	0xbda8de11	-0.08245481
133	0x3db78110	0.089601636
134	0xbe037bfb	-0.12840264
135	0xbd4b8e40	-0.049696207
136	0x3dafd4a4	0.0858548
137	0xbc23c9f2	-0.009996878
138	0x3daf41f9	0.08557505
139	0xbdb208e0	-0.08693099
140	0x3d2be446	0.041965745
141	0xbcde90ac	-0.027168594
142	0xbd759acc	-0.05996208
143	0x3c3dd6b5	0.011586835
144	0xbcfbc737	-0.030734641
145	0x3cce19c6	0.025158774
146	0xbd2d8669	-0.04236451
147	0x3adabb53	0.0016687907
148	0xbcc60e2c	-0.02417668
149	0x3d0ccc11	0.0343743
150	0xbdc030b3	-0.09384289
151	0x3cb3a5b7	0.021929605
152	0xbd42bfd4	-0.047546223
153	0xbdb380ad	-0.08764777
154	0x3def94da	0.11698313
155	0xbd9bcb03	-0.07607081
156	0x3dbe0aa0	0.0927937
157	0x3a206aa5	0.0006119407
158	0x3dbaa633	0.09113731
159	0x3da1e4e0	0.079049826
160	0x3d6d1b79	0.057887528
161	0xbc6fdce7	-0.01464007
162	0x3ce3a3fd	0.027788157
163	0xbe011a4d	-0.12607689
164	0xbd5432f3	-0.0518064
165	0x3c067364	0.008206222
166	0x3df8f9d4	0.12157026
167	0xbb41afdd	-0.0029554286
168	0x3d32370e	0.043509535
169	0xbdd9acda	-0.10628672
170	0x3c49d94c	0.012319874
171	0xbdf29bf4	-0.11846152
172	0x3ce57550	0.02801004
173	0x3dd4bb76	0.10387318
174	0x3de184ff	0.11011695
175	0x3e094d26	0.13408336
176	0xbc8c6564	-0.01713819
177	0x3ded576f	0.11588942
178	0xbdc8c404	-0.09803012
179	0xbd549c16	-0.051906668
180	0x3dba5d0d	0.09099779
181	0xbd091ee8	-0.03347674
182	0x3ce84594	0.02835349
183	0x3e0951ea	0.13410154
184	0xbe07d4ff	-0.13264845
185	0xbde36278	-0.11102766
186	0xbd06a8e1	-0.0328759
187	0x3e07218b	0.1319639
188	0x3dcd686e	0.10029684
189	0xbe091212	-0.133858
190	0x3cfafc6a	0.030637939
191	0xbccbad41	-0.024862887
192	0xbdc191f9	-0.0945167
193	0x3dcff10a	0.101533964
194	0xbccf439d	-0.025300795
195	0xbca20f96	-0.019782823
196	0xbe0582b9	-0.13038148
197	0xbb918952	-0.0044414187
198	0x3d736c87	0.05942967
199	0x3deb1ceb	0.11480125
200	0x3d26753e	0.040639155
201	0x3b747aac	0.0037304563
202	0xbdc5997c	-0.096484154
203	0xbd40e1b0	-0.047090232
204	0xbded5370	-0.1158818
205	0x3da52163	0.08063009
206	0x3e03c8f9	0.12869634
207	0x3ddae6ea	0.106885746
208	0xbdde5b11	-0.10857213
209	0x3c0ea98a	0.008707413
210	0xbd7dfa93	-0.062006544
211	0xbdfd3a8c	-0.123646826
212	0x3d15f49d	0.036610235
213	0x3da670c4	0.08126977
214	0xbd886bd1	-0.06661189
215	0xbde1968e	-0.11015044
216	0xbdc08bb0	-0.09401643
217	0xbdd03aef	-0.10167491
218	0x3ddc24e6	0.10749225
219	0xbd5645b8	-0.052312583
220	0xbd851b6a	-0.064993694
221	0x3cbddfb7	0.023177965
222	0xbe0d25b2	-0.13783911
223	0x3d5632d9	0.052294586
224	0xbda848ee	-0.08217035
225	0x3dd38685	0.10328392
226	0xbcf6adc3	-0.030112153
227	0x3d47e75e	0.048804633
228	0x3dd6a804	0.10481265
229	0xbc96df71	-0.018417092
230	0xbd5b63eb	-0.053562086
231	0x3e010fd4	0.12603694
232	0xbda3225b	-0.07965537
233	0x3e04fe68	0.12987673
234	0xbdf25cb9	-0.11834092
235	0x3c09e9e4	0.00841758
236	0xbd698f95	-0.057021696
237	0xbd85e107	-0.06537061
238	0xbdbb7b58	-0.09154385
239	0xbb2258ad	-0.0024772093
240	0xbdb1145c	-0.08646461
241	0xbe07ecae	-0.1327388
242	0xbdebaaaf	-0.11507165
243	0xbd586965	-0.052834887
244	0xbd4d3dcd	-0.050107766
245	0x3cf579a5	0.029965231
246	0x3db99e5c	0.09063408
247	0xbd90fe49	-0.07079751
248	0x3db12ffd	0.08651731
249	0x3d24c6c0	0.040228605
250	0x3d92f327	0.07175284
251	0xbcbea01c	-0.023269705
252	0xbe04e4fe	-0.12977979
253	0xbdac656c	-0.08417782
254	0x3d9e9ad5	0.077443756
255	0xbc110a57	-0.008852563

norm1.weight f4 [256]
0	0x3f7e935c	0.994436
1	0x3f804664	1.0021482
2	0x3f801b29	1.0008289
3	0x3f80a8fc	1.005157
4	0x3f800641	1.0001909
5	0x3f80aeb1	1.0053312
6	0x3f80ff42	1.0077899
7	0x3f8070df	1.0034446
8	0x3f7edc2c	0.99554706
9	0x3f80434f	1.0020541
10	0x3f7e3cec	0.9931171
11	0x3f7f28c7	0.99671596
12	0x3f80ff40	1.0077896
13	0x3f808afe	1.0042417
14	0x3f7e4fd9	0.9934059
15	0x3f8068cc	1.0031981
16	0x3f7ec86b	0.99524564
17	0x3f7f3ee7	0.99705356
18	0x3f80471d	1.0021702
19	0x3f80ffea	1.0078099
20	0x3f810850	1.0080662
21	0x3f7eb39a	0.994928
22	0x3f808ad4	1.0042367
23	0x3f8104ae	1.0079553
24	0x3f7e4293	0.99320334
25	0x3f7ec9fe	0.99526966
26	0x3f7ffda5	0.99996406
27	0x3f8087e8	1.0041475
28	0x3f80ed59	1.0072433
29	0x3f7eac89	0.9948202
30	0x3f7ea32a	0.9946772
31	0x3f808fcd	1.0043885
32	0x3f80c7fd	1.0061032
33	0x3f805df8	1.0028677
34	0x3f8135e4	1.0094571
35	0x3f8013f6	1.0006092
36	0x3f7ef23c	0.9958837
37	0x3f804410	1.0020771
38	0x3f806776	1.0031574
39	0x3f7ed9a0	0.9955082
40	0x3f7e51a0	0.993433
41	0x3f80b668	1.0055666
42	0x3f8127f0	1.0090313
43	0x3f803189	1.0015117
44	0x3f80eab0	1.0071621
45	0x3f80abaf	1.0052394
46	0x3f7e8cca	0.9943358
47	0x3f806409	1.0030528
48	0x3f813444	1.0094075
49	0x3f7f004f	0.99609846
50	0x3f80d8ef	1.0066203
51	0x3f8040e2	1.0019801
52	0x3f7f0ca8	0.99628687
53	0x3f80fe87	1.0077676
54	0x3f80d882	1.0066073
55	0x3f7f78a3	0.9979345
56	0x3f8025b8	1.0011511
57	0x3f7f8fb0	0.99828625
58	0x3f7ec9a8	0.99526453
59	0x3f8107d2	1.0080512
60	0x3f7e6a00	0.99380493
61	0x3f7e8576	0.99422395
62	0x3f806e19	1.0033599
63	0x3f7e0fb8	0.99242735
64	0x3f7ffa22	0.9999105
65	0x3f805982	1.0027316
66	0x3f7e80f9	0.99415547
67	0x3f7e8ab5	0.994304
68	0x3f80a44c	1.005014
69	0x3f80bbbb	1.0057291
70	0x3f80f685	1.0075232
71	0x3f8048fc	1.0022273
72	0x3f7eb4a6	0.994944
73	0x3f7ee29e	0.9956454
74	0x3f7ead0d	0.99482805
75	0x3f81276d	1.0090157
76	0x3f805eb5	1.0028902
77	0x3f8058c7	1.0027093
78	0x3f7ec3ce	0.99517524
79	0x3f80dc88	1.0067301
80	0x3f80d1f1	1.0064069
81	0x3f7eff67	0.99608463
82	0x3f7e6f35	0.9938844
83	0x3f8069c9	1.0032283
84	0x3f7ea13b	0.9946477
85	0x3f80efc6	1.0073173
86	0x3f7ee567	0.9956879
87	0x3f809ffd	1.0048825
88	0x3f7fa2c8	0.9985776
89	0x3f7e8031	0.99414355
90	0x3f800459	1.0001327
91	0x3f80a86d	1.00514
92	0x3f7e9f98	0.9946227
93	0x3f7e97d6	0.99450433
94	0x3f807635	1.0036074
95	0x3f80c416	1.0059841
96	0x3f80c512	1.0060141
97	0x3f80f759	1.0075485
98	0x3f800dc2	1.0004199
99	0x3f7ed4e2	0.99543583
100	0x3f7ed3cb	0.9954192
101	0x3f7fc51e	0.9991015
102	0x3f7ecb6b	0.9952914
103	0x3f809fc0	1.0048752
104	0x3f7f7878	0.99793196
105	0x3f7e771c	0.99400496
106	0x3f7e9002	0.9943849
107	0x3f7e7284	0.99393487
108	0x3f7ec78f	0.9952325
109	0x3f80f31b	1.007419
110	0x3f80b811	1.0056173
111	0x3f811635	1.0084902
112	0x3f7e0fa4	0.99242616
113	0x3f80bc46	1.0057456
114	0x3f7e81c7	0.99416775
115	0x3f7f4dac	0.9972789
116	0x3f7e9420	0.9944477
117	0x3f7e8792	0.99425614
118	0x3f80f25e	1.0073965
119	0x3f7f113a	0.9963566
120	0x3f7ee501	0.9956818
121	0x3f7fb658	0.9988761
122	0x3f7f929a	0.9983307
123	0x3f7e806c	0.99414706
124	0x3f7ed6c1	0.9954644
125	0x3f7f0c6a	0.9962832
126	0x3f80982b	1.0046438
127	0x3f805a0c	1.002748
128	0x3f808258	1.0039778
129	0x3f80c9ad	1.0061547
130	0x3f7eb6d9	0.99497753
131	0x3f7fc812	0.9991466
132	0x3f7e7fde	0.9941386
133	0x3f7eb8d1	0.9950076
134	0x3f7e5741	0.9935189
135	0x3f7eb902	0.9950105
136	0x3f7e8800	0.9942627
137	0x3f7e8b59	0.9943138
138	0x3f8112f7	1.0083913
139	0x3f7e5f85	0.993645
140	0x3f7e1c75	0.9926217
141	0x3f7e5c59	0.9935966
142	0x3f806db5	1.003348
143	0x3f800f2e	1.0004632
144	0x3f80d182	1.0063937
145	0x3f7eca84	0.99527764
146	0x3f7f0710	0.9962015
147	0x3f7fc8fc	0.9991605
148	0x3f7efc68	0.9960389
149	0x3f80c1fc	1.0059199
150	0x3f8028e1	1.0012475
151	0x3f7eec5c	0.99579406
152	0x3f7e53f5	0.9934686
153	0x3f7fe24f	0.99954695
154	0x3f7e5079	0.9934154
155	0x3f8085d9	1.0040847
156	0x3f7f715a	0.99782336
157	0x3f80a721	1.0051004
158	0x3f7ef305	0.9958957
159	0x3f80921c	1.0044589
160	0x3f7f1a69	0.99649674
161	0x3f7f66e4	0.99766374
162	0x3f7fa40f	0.9985971
163	0x3f80beb7	1.0058202
164	0x3f8121af	1.0088404
165	0x3f7e9a71	0.9945441
166	0x3f800a4f	1.0003146
167	0x3f8066b5	1.0031344
168	0x3f7f284e	0.99670875
169	0x3f7e4652	0.9932605
170	0x3f7f1173	0.99636
171	0x3f7ea268	0.9946656
172	0x3f7e3b98	0.9930968
173	0x3f80737e	1.0035245
174	0x3f804880	1.0022125
175	0x3f7e6ede	0.9938792
176	0x3f7e9ba8	0.9945626
177	0x3f7edd2d	0.9955624
178	0x3f80b6b2	1.0055754
179	0x3f7e2a31	0.9928313
180	0x3f7fef4b	0.9997451
181	0x3f804254	1.0020242
182	0x3f7f355f	0.9969081
183	0x3f7e9e97	0.9946074
184	0x3f7ed72a	0.99547064
185	0x3f7f5770	0.99742794
186	0x3f80ad21	1.0052835
187	0x3f7ec54a	0.9951979
188	0x3f7e4852	0.993291
189	0x3f802719	1.0011932
190	0x3f807f20	1.0038795
191	0x3f7f1e03	0.9965517
192	0x3f80bddb	1.0057939
193	0x3f80a721	1.0051004
194	0x3f7e6368	0.9937043
195	0x3f80834c	1.0040069
196	0x3f8013b3	1.0006012
197	0x3f80c667	1.0060548
198	0x3f813723	1.0094951
199	0x3f7f2cc0	0.9967766
200	0x3f7f9580	0.99837494
201	0x3f7ff3c4	0.9998133
202	0x3f7e848d	0.99421006
203	0x3f7eef39	0.99583775
204	0x3f7ee8c5	0.9957393
205	0x3f8093b1	1.0045072
206	0x3f80dc83	1.0067295
207	0x3f80823e	1.0039747
208	0x3f8031c8	1.0015192
209	0x3f8054bc	1.0025859
210	0x3f808358	1.0040083
211	0x3f7ff079	0.9997631
212	0x3f8018ad	1.000753
213	0x3f7e9b41	0.9945565
214	0x3f7f2325	0.99663
215	0x3f8015bb	1.0006632
216	0x3f80c12b	1.005895
217	0x3f808fc6	1.0043876
218	0x3f7f9c7e	0.99848163
219	0x3f812673	1.0089859
220	0x3f7eb522	0.99495137
221	0x3f8079c6	1.0037162
222	0x3f7fd585	0.9993518
223	0x3f7df5d1	0.9920321
224	0x3f7e7c5a	0.99408495
225	0x3f802886	1.0012367
226	0x3f7f43a9	0.99712616
227	0x3f7f21e4	0.9966109
228	0x3f7eba07	0.99502605
229	0x3f7f3594	0.9969113
230	0x3f7ea85b	0.9947564
231	0x3f806f44	1.0033956
232	0x3f80c4e6	1.0060089
233	0x3f7e5871	0.993537
234	0x3f7ee694	0.99570584
235	0x3f7fb52e	0.99885833
236	0x3f7f5930	0.99745464
237	0x3f7e7cbd	0.99409086
238	0x3f7fb0b1	0.99878985
239	0x3f7f2a0b	0.9967353
240	0x3f80ce05	1.0062872
241	0x3f7ee635	0.9957002
242	0x3f7ecebb	0.99534196
243	0x3f7ec70e	0.99522483
244	0x3f80351c	1.0016208
245	0x3f809f1f	1.004856
246	0x3f7fbc83	0.9989702
247	0x3f7f86dd	0.9981516
248	0x3f800676	1.0001972
249	0x3f800746	1.000222
250	0x3f7ec45f	0.9951839
251	0x3f80bc21	1.0057412
252	0x3f7f0695	0.9961942
253	0x3f801383	1.0005955
254	0x3f80e2e9	1.0069247
255	0x3f7eab30	0.9947996

norm1.bias f4 [256]
0	0xbbdb9b94	-0.006701896
1	0xbba4784a	-0.0050192224
2	0x3a8102c8	0.0009842748
3	0xbbab22d6	-0.0052226586
4	0x3b911c04	0.0044283886
5	0xbb517011	-0.0031957666
6	0xbbde56c5	-0.006785246
7	0x3acbe816	0.0015556838
8	0xbb29c359	-0.002590379
9	0x3ba0b06a	0.0049038427
10	0x3bf1d7af	0.007380448
11	0x3ae96be8	0.0017808648
12	0x3bf69817	0.0075254547
13	0x3beb45e8	0.0071799643
14	0x3bf67182	0.0075208554
15	0x3b80e12d	0.003933093
16	0x3bdb7f3d	0.0066985176
17	0xbb8a50e4	-0.0042210687
18	0x3b610643	0.0034336008
19	0x3bd41f31	0.006473445
20	0x3c03d8e3	0.008047315
21	0xbba11e3c	-0.0049169343
22	0x3b9050d4	0.0044041667
23	0xbbdb0830	-0.0066843256
24	0xbad80a90	-0.001648264
25	0x3b812f0f	0.0039423774
26	0x3ac1d28b	0.0014787478
27	0xbbaea9c7	-0.0053302976
28	0xbbb8dd09	-0.005641584
29	0x3bb52752	0.005528369
30	0x3beab7f9	0.0071630445
31	0x3b9bed94	0.004758546
32	0xbbbf793c	-0.0058433097
33	0x3b557b95	0.0032574881
34	0x3bc70dd8	0.0060746484
35	0xba7d7dae	-0.0009669912
36	0xbb8c7818	-0.004286777
37	0xb9a9019c	-0.0003223539
38	0x3b93b618	0.0045077913
39	0xbbcf6a53	-0.0063298135
40	0x3bbd1203	0.0057699694
41	0x3bac948e	0.0052667325
42	0x3bfb81d6	0.0076753898
43	0xbb1c8d0d	-0.0023887784
44	0xbbbf3402	-0.0058350572
45	0xbb9eacec	-0.0048423912
46	0x3b78d8a2	0.003797092
47	0x3ba0f8c5	0.004912468
48	0x39d16a4b	0.0003994278
49	0x3b3253d7	0.0027210617
50	0x3bccd332	0.0062507624
51	0xbb7cb0c5	-0.0038557511
52	0x3b58e046	0.0033092662
53	0x3bcfa503	0.0063368096
54	0x3bc23cc5	0.0059276544
55	0xb9f1095c	-0.00045974075
56	0x3b6c1156	0.0036021075
57	0xbb467021	-0.0030279236
58	0x3bbec55e	0.005821868
59	0x3bdc25bf	0.006718367
60	0x3bb3af02	0.005483509
61	0x3bb56b70	0.005536489
62	0xbb4da808	-0.0031380672
63	0xbb226d6b	-0.0024784456
64	0x3ba75077	0.0051060277
65	0xbb492a17	-0.0030695254
66	0x3bc036c6	0.0058659045
67	0xbbbaeb66	-0.005704331
68	0x3ba02c55	0.0048880973
69	0x3ba2c3e8	0.0049672015
70	0x3ba87b28	0.0051416345
71	0xbbec9960	-0.007220432
72	0xbb9db378	-0.004812654
73	0x3b848e52	0.004045286
74	0x3b5f4804	0.0034070024
75	0xbc038637	-0.008027605
76	0xbaca739e	-0.0015445834
77	0x3b907460	0.004408404
78	0x3a042899	0.000504145
79	0x3bcb9314	0.0062126014
80	0xba246b7b	-0.00062721194
81	0x3b54a5ec	0.003244753
82	0xbb5c9256	-0.003365656
83	0xbb56754b	-0.003272372
84	0xbbb6169d	-0.005556895
85	0xbbd786a6	-0.0065773306
86	0x3b43c2f4	0.002987084
87	0x3bbcbb79	0.005759653
88	0x3bccea37	0.0062535065
89	0x3b954d2d	0.004556319
90	0xbbaaac6a	-0.0052085416
91	0x3ba79f62	0.0051154355
92	0xbbcd7d71	-0.0062710573
93	0x3b38e28c	0.0028211204
94	0xbb89e2a3	-0.0042079254
95	0x3bc1e989	0.005917732
96	0xbbc8e606	-0.0061309366
97	0xbbde1562	-0.0067774514
98	0xbb91028c	-0.0044253524
99	0xbbfac5e2	-0.007652984
100	0x3bd0bc9b	0.00637014
101	0x388f1360	6.82238e-05
102	0x3b2b2635	0.0026115302
103	0xbba0ce6a	-0.004907419
104	0xbb6e07d1	-0.0036320577
105	0x3bbdf659	0.005797189
106	0xbbafc332	-0.0053638453
107	0x3be183bc	0.006882159
108	0x3ba9d39b	0.005182696
109	0x3be33430	0.0069337115
110	0x3bb342f6	0.005470629
111	0x3ba055f6	0.00489306
112	0xbc0089f5	-0.0078453915
113	0x3bb02cb3	0.0053764223
114	0xbb86f47b	-0.0041185
115	0x3b094d0e	0.002095047
116	0xbb9c3572	-0.0047671134
117	0xbb23a7cb	-0.0024971839
118	0xbbd32de3	-0.006444679
119	0x3b8dd76d	0.0043286593
120	0xbab11f1e	-0.0013513302
121	0x3a0bc670	0.00053319987
122	0xbbe4a8b7	-0.00697812
123	0x39ee9b80	0.00045510754
124	0xbb9d90bc	-0.0048085134
125	0x3b4cdff5	0.0031261418
126	0xbbad01fc	-0.0052797776
127	0xbb074e2c	-0.002064596
128	0x3b9d2cf1	0.004796617
129	0xbbb0e980	-0.005398929
130	0x3b8a9eeb	0.0042303703
131	0x3b359d3c	0.0027712127
132	0xbbbe1c0e	-0.005801684
133	0xbbd12a83	-0.0063832416
134	0xbbcb8e95	-0.0062120655
135	0xbbc617ab	-0.006045302
136	0x3b3ae735	0.0028519158
137	0x3baa8e8e	0.005204982
138	0xbbed20e0	-0.007236585
139	0x3be5ffa1	0.0070189987
140	0x3b5d5468	0.0033772234
141	0x3bd59404	0.006517889
142	0x3b658489	0.0035021624
143	0xbb0fcb14	-0.0021941112
144	0xbbc2874d	-0.0059365393
145	0xbb997cda	-0.004684073
146	0x3b5a1fcf	0.003328312
147	0x3b385203	0.0028125055
148	0xbb28199a	-0.0025650025
149	0x3c01d6a0	0.007924706
150	0x3b0ac56e	0.0021174806
151	0x3bc23016	0.0059261424
152	0x3b760b3c	0.0037543317
153	0x3b70a764	0.0036720866
154	0x3b22d727	0.002484748
155	0xbb1d9253	-0.0024043515
156	0xbba44200	-0.0050127506
157	0x3b885277	0.004160221
158	0xbba5f7ce	-0.005064941
159	0xbbadfa8b	-0.005309408
160	0x3b1c4553	0.0023845031
161	0xbb166491	-0.0022948126
162	0xb9691a2f	-0.00022230366
163	0xbbc227b9	-0.0059251455
164	0x3bc850fe	0.0061131706
165	0xbbad7ed1	-0.0052946587
166	0x3afedeec	0.0019445098
167	0xbb5f24fe	-0.0034049149
168	0xbb33aae0	-0.0027415082
169	0x3b386543	0.0028136529
170	0x3a3a3078	0.00071025593
171	0xbb2034b9	-0.0024445488
172	0x3b8cf40f	0.004301555
173	0xbbb2fed4	-0.005462507
174	0x3b878c9d	0.0041366355
175	0xbbcc58e7	-0.006236184
176	0xbb8403d2	-0.0040287757
177	0x3b8a6e06	0.0042245416
178	0x3bf7968c	0.0075557884
179	0x3aa303e3	0.0012437071
180	0x3be9d52f	0.007136009
181	0xbb23d4bf	-0.0024998633
182	0x3bef2db6	0.0072991503
183	0x3bac132a	0.005251308
184	0x3ba7ea0d	0.0051243366
185	0x3b731007	0.003708841
186	0xbba1a62c	-0.0049331393
187	0xbb5d7136	-0.0033789403
188	0xbb6a82ff	-0.0035783646
189	0xbb6144ac	-0.0034373207
190	0xbb880e1b	-0.004152072
191	0x3b28b523	0.0025742732
192	0xbba8afa5	-0.0051478916
193	0x3ba6f9d9	0.005095702
194	0xba9f37a2	-0.0012147317
195	0xbb9e23c1	-0.0048260395
196	0xb9ccf1c1	-0.00039090033
197	0xbb412a5a	-0.0029474706
198	0x3be94bc2	0.0071196267
199	0x3ab9fa18	0.0014188914
200	0x3b301483	0.0026867695
201	0xbb82cf2c	-0.003991982
202	0x3bab682a	0.005230923
203	0x3c03a8ed	0.0080358805
204	0x3b2c2a78	0.002627043
205	0x3b9cba0e	0.0047829216
206	0x3bba03dc	0.0056767296
207	0x3ba48b95	0.0050215223
208	0xbb29e832	-0.0025925753
209	0xbbac6070	-0.0052605197
210	0x3bde4353	0.006782928
211	0x3a6237ba	0.000862952
212	0x3bba7f42	0.00569144
213	0x3a7e22d0	0.00096945185
214	0xbbc3a3c0	-0.0059704483
215	0xbbd2c8ea	-0.006432642
216	0x3bcaf12c	0.0061933007
217	0xbba528b3	-0.005040252
218	0x3a3ec496	0.00072772184
219	0x3bb2cb21	0.0054563438
220	0xbbcfcea0	-0.0063417703
221	0x3b8de4f8	0.0043302737
222	0x3b53a605	0.0032295
223	0xbbe835d3	-0.0070864945
224	0x3bc33452	0.005957165
225	0x3b1190fd	0.0022211664
226	0xbb4b835b	-0.0031053636
227	0xba92df14	-0.0011205398
228	0xbbd5f60d	-0.0065295757
229	0xbb81fa81	-0.00396663
230	0xbb468c42	-0.0030296003
231	0x3b5e4dad	0.003392081
232	0x3b22014e	0.0024720016
233	0x3c063278	0.008190744
234	0x3b928bc5	0.004472228
235	0xbafdc82d	-0.0019362025
236	0x3b41e792	0.002958749
237	0x3be44406	0.006966117
238	0x3a5593f8	0.0008147354
239	0xbb923488	-0.0044618286
240	0xbb72163c	-0.0036939522
241	0x3b3fc4a3	0.0029261492
242	0x3b6ff2c3	0.0036613203
243	0xbb940def	-0.0045182626
244	0xbb13510b	-0.0022478725
245	0x3b9f7e9e	0.004867389
246	0x3b041dca	0.0020159357
247	0xba10be65	-0.0005521535
248	0xba1c7daf	-0.0005969656
249	0x3bc048fc	0.0058680754
250	0xbbac483c	-0.0052576344
251	0x3bb4e6ef	0.0055206935
252	0xb98dfe8a	-0.00027083262
253	0x3b2a99a8	0.0026031528
254	0xbbcb6ab8	-0.00620779
255	0x3b2b8f08	0.0026177783
